GEN/code/checkpoint/checkpoint_CTU_1.pt (torch, 410355 bytes, 15 tensors)

gat_layers.0.attn_l f4 [1, 8, 64]
0	0x3da535c7	0.08066898
1	0x3e003070	0.12518477
2	0x3abac1a6	0.0014248386
3	0xbc93eebf	-0.018058179
4	0x3dbd491e	0.092424616
5	0x3debbeba	0.115109876
6	0xbd1b88ab	-0.037972134
7	0xbd3a76eb	-0.045523565
8	0x3d66e2b0	0.05636853
9	0x3e0f85cd	0.14015885
10	0x3d943956	0.072374985
11	0xbd758d19	-0.059949014
12	0x3d3cb6ce	0.046072774
13	0x3b8dfdde	0.004333242
14	0x3e1f527f	0.15558814
15	0x3de9767d	0.11399553
16	0x3d064f78	0.03279063
17	0xbc014960	-0.007891029
18	0xbd1226da	-0.035681583
19	0x3cdeb7e8	0.027187303
20	0x3bd7c283	0.006584467
21	0xbd5dd263	-0.05415572
22	0xbc98f7ad	-0.018672789
23	0xbdf84771	-0.12123001
24	0x3dccbecb	0.09997328
25	0x3cc563fa	0.024095524
26	0xbd898653	-0.067150734
27	0xbdac4a0a	-0.08412559
28	0x3d2641e8	0.040590197
29	0xbb8d8b1a	-0.0043195607
30	0x3d8b026a	0.0678757
31	0xbddc42e5	-0.107549466
32	0x3d5d0fe4	0.053970233
33	0x3d95e880	0.073197365
34	0x3c479e6e	0.012183769
35	0x3bc77846	0.0060873358
36	0xbb2ffcab	-0.0026853483
37	0x3d9b563f	0.075848095
38	0x3d1be600	0.038061142
39	0x3c24ce3a	0.010058934
40	0x3cbd0fa4	0.023078747
41	0xbe083b59	-0.1330389
42	0x3d051bd5	0.032497246
43	0xbd61d9e0	-0.055139422
44	0xbca14fa1	-0.01969129
45	0xbdf34cb6	-0.11879866
46	0x3de5f223	0.112278245
47	0xbd9a92f6	-0.07547562
48	0x3d2bc597	0.041936483
49	0xbd7988e6	-0.060921572
50	0xbd9bb33e	-0.07602547
51	0x3dcc7043	0.0998235
52	0xbdc20584	-0.09473708
53	0xbe3ea204	-0.18616492
54	0xbce69e00	-0.028151512
55	0x3dc094c7	0.09403377
56	0x3d397579	0.045278046
57	0x3d28b2a0	0.041185975
58	0xbc7a34ea	-0.015271405
59	0x3d80fe4b	0.062985025
60	0xbe2e5c45	-0.17027386
61	0x3b133edb	0.0022467885
62	0x3d2cc26e	0.04217761
63	0x3cfe21f0	0.031022042
64	0x3dc5d1b4	0.09659138
65	0x3dc7d8e4	0.097581655
66	0x3d1e146c	0.038593695
67	0xbd06eb7c	-0.03293942
68	0xbdb9d4fe	-0.09073828
69	0xbd93ea11	-0.07222379
70	0x3e2fefe2	0.17181352
71	0xbc68189d	-0.0141660245
72	0x3d86afe4	0.06576517
73	0xbd6da0a3	-0.058014523
74	0xbde3efdd	-0.11129735
75	0xbcaca9e4	-0.021077104
76	0x3dae1343	0.08499768
77	0xbc90002f	-0.017578213
78	0xbda9ea7c	-0.082966775
79	0xbd28a1f1	-0.041170064
80	0x3db7d592	0.08976282
81	0xbd5870c2	-0.05284191
82	0x3d90c6dc	0.070691794
83	0xbc777c12	-0.015105264
84	0x3e0e7351	0.13911177
85	0x3dbc9409	0.09207923
86	0x3d871932	0.065966025
87	0xbd0b9fce	-0.03408795
88	0xbdc76fd0	-0.097381234
89	0x3d380026	0.044922017
90	0xbd9ce29b	-0.07660409
91	0xbdc61b88	-0.0967322
92	0x3da35eb9	0.07977051
93	0x3e266778	0.16250408
94	0x3b486aca	0.003058123
95	0xbc1b112d	-0.009464544
96	0xbc9e1352	-0.019296322
97	0xbda7a414	-0.08185592
98	0xbdaacf63	-0.08340337
99	0x3ce29c6e	0.027662482
100	0x3dc11ba7	0.094291024
101	0xbca9bff9	-0.020721423
102	0xbe00d14b	-0.12579839
103	0xbc227b01	-0.009917022
104	0x39c89762	0.00038259762
105	0x3d410ae3	0.047129523
106	0x3d8db1cc	0.06918678
107	0x3ddb6ea5	0.10714463
108	0x3e1b76a8	0.15181983
109	0x3da116a8	0.078656495
110	0xbd11c825	-0.035591263
111	0xbdd2459b	-0.102671824
112	0x3d39a8aa	0.045326866
113	0xbd8bf8ab	-0.06834539
114	0xbc64153c	-0.013921078
115	0xbc8e092d	-0.01733836
116	0x3c5caee8	0.013469435
117	0x3a974a80	0.0011542588
118	0xbd46f9eb	-0.048578184
119	0x3d2d8028	0.042358547
120	0xbe2e790e	-0.17038366
121	0xbd34387b	-0.043999176
122	0xbda2f0bb	-0.07956072
123	0xbc8290c6	-0.015938174
124	0xbd46529f	-0.048418637
125	0x3c2a6850	0.010400847
126	0x3c1093ea	0.008824328
127	0xbd5b6527	-0.053563263
128	0x3cc934ca	0.024561305
129	0xbca756b1	-0.02042708
130	0x3c3f31a1	0.011669547
131	0xbae91ef1	-0.001778571
132	0x3d37d339	0.044879172
133	0xbc9d5c46	-0.019209038
134	0xbbea4d99	-0.0071503636
135	0xbd16d741	-0.036826376
136	0x3cf3624f	0.029709963
137	0x3e1b99d1	0.15195395
138	0x3cba9e5d	0.022780592
139	0x3e140b44	0.14457422
140	0x3c622293	0.013802188
141	0xbe115294	-0.14191657
142	0x3dbf5b18	0.09343547
143	0x3d011289	0.031511817
144	0x3cfebb4d	0.031095171
145	0x3c228a76	0.009920707
146	0xbd87affe	-0.06625365
147	0x3da2782c	0.07933077
148	0xbe32bad7	-0.17454086
149	0x3c8346b5	0.016024927
150	0xbdabf1a0	-0.08395696
151	0xbd47d0bc	-0.04878305
152	0x3c9dee64	0.019278713
153	0x3dfbdf3b	0.12298437
154	0xbd0f01c4	-0.034913793
155	0xbcb36543	-0.021898871
156	0x3cc03d82	0.02346683
157	0xbd05cf8c	-0.032668635
158	0xbcf18e41	-0.029486777
159	0xbcb42723	-0.021991318
160	0x3dd63d11	0.10460866
161	0xbd3c8ec9	-0.046034608
162	0xbd76d25d	-0.06025921
163	0x3d537240	0.05162263
164	0xbdd4d968	-0.103930295
165	0x3c4205b3	0.011842179
166	0x3c9c9d25	0.019117901
167	0x3d16e315	0.036837656
168	0x3d732da2	0.05936969
169	0xbd6fbdda	-0.058530666
170	0x3cc329eb	0.023823699
171	0xbd419432	-0.04726047
172	0xbd813022	-0.06308009
173	0xbe29bf87	-0.16576968
174	0xbda95a17	-0.082691364
175	0x3d16d775	0.03682657
176	0x3c49d582	0.012318971
177	0x3e2924ae	0.16517898
178	0xbd3e072a	-0.04639355
179	0x3e32214d	0.17395516
180	0x3de4c40f	0.11170208
181	0x3cf8b12b	0.030357918
182	0x3d0f8561	0.03503931
183	0xbd1478a7	-0.036247876
184	0x3de287c4	0.110610515
185	0xbd94b654	-0.07261339
186	0x3caf5087	0.021400703
187	0x3d9e18b1	0.07719553
188	0xbc20c2bf	-0.009812056
189	0x3ddfff4d	0.10937367
190	0xbd09902a	-0.03358475
191	0xbd61d93a	-0.055138804
192	0xbe04175d	-0.12899537
193	0x3dc81d84	0.09771255
194	0xbd49405e	-0.04913365
195	0xbcd165fc	-0.025561325
196	0xbde9ce5a	-0.114163116
197	0xbdaa2a07	-0.08308797
198	0xbd5ff783	-0.054679405
199	0x3e2d8b57	0.16947685
200	0x3cbb12d8	0.022836134
201	0xbd5a8f1f	-0.053359147
202	0xbb3e66c0	-0.0029052943
203	0x3da2d048	0.07949883
204	0xbc6d3a9f	-0.014479308
205	0xbc937586	-0.018000375
206	0x3d8f7981	0.07005597
207	0xbe33a9dc	-0.17545265
208	0x3ced135b	0.028939893
209	0x3d9a324e	0.07529126
210	0xbe1cc2a9	-0.15308632
211	0x3d6428a4	0.05570282
212	0xbdef23e4	-0.116767675
213	0x3b8310be	0.0039997986
214	0xbcaea9f9	-0.021321284
215	0xbd15391c	-0.036431417
216	0xbd8a4e2e	-0.06753193
217	0x3e357e98	0.17724073
218	0xbd164690	-0.036688387
219	0xbdbd6b04	-0.09248927
220	0xbe19ab2f	-0.15006708
221	0x3c65a0a3	0.01401535
222	0xbd0c1b10	-0.034205496
223	0x3dd3800d	0.10327158
224	0x3cd0f391	0.025506767
225	0xbc193313	-0.009350556
226	0x3db48799	0.08814926
227	0xbd287003	-0.041122448
228	0xbd8a172c	-0.06742701
229	0xbca7c0d9	-0.0204777
230	0xbd938f83	-0.07205107
231	0xbe0c24a5	-0.13685854
232	0xbd4e4899	-0.050362203
233	0x3d95137a	0.072791055
234	0x3e353670	0.17696548
235	0x3da1d8a5	0.0790265
236	0xbcf8e70b	-0.030383607
237	0xbdbf50e2	-0.09341599
238	0x3d9608c9	0.073258944
239	0x3ca6b5f7	0.02035044
240	0x3e04e5bb	0.1297826
241	0xbdc8176b	-0.097700916
242	0xbdd42b5c	-0.10359833
243	0xbd87d5d9	-0.06632585
244	0x3c09a3ef	0.008400901
245	0xbca9d709	-0.02073242
246	0x3ca26166	0.019821834
247	0x3e21aa05	0.15787514
248	0xbd59e3fd	-0.053195942
249	0x3d4b5dc3	0.049649965
250	0xbd12120d	-0.035661746
251	0xbda9881c	-0.08277914
252	0x3d8b1b0c	0.06792268
253	0x3cdc5c53	0.026899492
254	0xbd3b5654	-0.045736626
255	0x3d68a1f6	0.056795083

gat_layers.0.attn_r f4 [1, 8, 64]
0	0x3e65e9a5	0.2245241
1	0x3e02e627	0.12783109
2	0xbd6915da	-0.056905605
3	0x3d54bcf1	0.051938
4	0xbdb457fd	-0.08805845
5	0xbdb162af	-0.086614005
6	0xbe12f7bd	-0.14352317
7	0x3d2f9296	0.042864405
8	0x3cd06269	0.02543755
9	0xbd092f01	-0.033492092
10	0xbd21de7e	-0.039518826
11	0xbe16c323	-0.14722876
12	0xbcf0092a	-0.029301245
13	0x3dfe553d	0.12418602
14	0x3cf5c166	0.029999446
15	0xbdabbadc	-0.0838525
16	0xbe1154da	-0.14192525
17	0xbdeac282	-0.11462881
18	0x3da7f1bb	0.08200403
19	0xbd2571ec	-0.040391847
20	0xbbeb6264	-0.00718336
21	0xbc6b82a2	-0.014374407
22	0xbd97f615	-0.07419983
23	0x3be13d70	0.006873779
24	0xbdaf3e2a	-0.08556779
25	0xbdf7a48a	-0.1209193
26	0xbcfe4cab	-0.031042418
27	0x3cf789b6	0.030217033
28	0x3ddf8571	0.10914124
29	0x3c88f638	0.016718969
30	0xbadfc7c3	-0.0017073083
31	0xbd573840	-0.05254388
32	0x3ceb2727	0.028705193
33	0xbdb4e622	-0.08832957
34	0xbcaec601	-0.02133465
35	0xbc0e4c86	-0.008685237
36	0x3d9a3a44	0.075306445
37	0xbdc873c1	-0.09787703
38	0x3e290d45	0.16508968
39	0xbc7249c6	-0.014788097
40	0xbe1ae688	-0.15127003
41	0x3d131fad	0.03591888
42	0x3c829336	0.015939336
43	0xbce4940f	-0.027902631
44	0xbe160759	-0.1465124
45	0xbca906d9	-0.020633148
46	0x3e0f438a	0.13990608
47	0x3d6d9ba6	0.058009766
48	0x3e645bb2	0.22300604
49	0xbbdbdff4	-0.006710047
50	0x3d9038b1	0.07042063
51	0x3c947713	0.018123185
52	0xbde9c53d	-0.11414573
53	0xbe35aa5a	-0.17740765
54	0xbcccb9bf	-0.024990914
55	0x3d4b65f8	0.04965779
56	0xbd3f4f10	-0.04670626
57	0x3e5b0500	0.21388626
58	0x3d43c9cd	0.047799874
59	0x3d38dd8a	0.04513315
60	0xbc7be9b6	-0.015375545
61	0x3dbcd1cf	0.09219705
62	0x3e25096b	0.16116874
63	0x3dc58b39	0.09645695
64	0x3c831efc	0.016005985
65	0xbc26500c	-0.010150921
66	0x3d2251d9	0.039628837
67	0xbd321c7d	-0.0434842
68	0x3ddf4174	0.10901156
69	0xbd5a9b8d	-0.053371
70	0x3db0af16	0.08627145
71	0x3c89bf6c	0.01681491
72	0x3e040d72	0.12895754
73	0xbd84c253	-0.06482377
74	0xbce666be	-0.028125163
75	0xbc174ccc	-0.009234618
76	0xbdb7070f	-0.08936893
77	0xbda95ae8	-0.08269292
78	0x3df58ea3	0.119900964
79	0x3e0a278a	0.13491645
80	0xbd0c095b	-0.03418861
81	0x3c4f2591	0.012643234
82	0x3ce7a3aa	0.028276283
83	0x3daf0b11	0.085470326
84	0xbd4141db	-0.047181945
85	0x3d8abaa6	0.067738816
86	0x3d4d9b06	0.05019667
87	0xbdca7870	-0.09886253
88	0xbccc70b4	-0.024956085
89	0x3d99bd3e	0.07506798
90	0xbd98ea26	-0.07466535
91	0xbb0a7b84	-0.002113075
92	0x3dadf822	0.08494593
93	0xbd79bfb6	-0.060973845
94	0x3ca5a6b2	0.020221088
95	0xbb7c457a	-0.003849356
96	0xbe182238	-0.14856803
97	0xbd91b708	-0.071149886
98	0xbe033fb8	-0.12817276
99	0x3b7b78b7	0.0038371512
100	0x3df7d783	0.121016525
101	0x3d9e4144	0.07727292
102	0x3cc9fbe8	0.024656251
103	0x3d7dc350	0.061953843
104	0xbda9d7db	-0.08293124
105	0xbd23b997	-0.039971914
106	0x3dce22de	0.10065244
107	0x3c8b37d2	0.01699439
108	0x3d34b965	0.04412212
109	0x3b80968f	0.003924198
110	0x3c8fc733	0.01755104
111	0x3d25858f	0.040410575
112	0x3d57d7e6	0.05269613
113	0x3d2356cc	0.039877698
114	0x3baa8241	0.0052035158
115	0x3cae42f3	0.021272158
116	0x3d3c31bb	0.045945864
117	0xbd16620b	-0.036714595
118	0x3d12a940	0.03580594
119	0xbe0bfb87	-0.13670169
120	0x3c56ebc3	0.013117733
121	0xbd9b813c	-0.07593009
122	0xbe21903b	-0.15777676
123	0x3d1d02e0	0.03833282
124	0x3cc06d2e	0.023489561
125	0x3da024a2	0.07819487
126	0xbc1a5018	-0.00941851
127	0xbdc76b68	-0.09737283
128	0xbd54b742	-0.05193258
129	0xbdb7ae2f	-0.0896877
130	0x3c8b5258	0.017007038
131	0xbda2bbdd	-0.07945988
132	0xbc3f135f	-0.011662333
133	0x3cec8849	0.02887358
134	0x3dbf8d6c	0.09353146
135	0xbc34a93b	-0.011026676
136	0xbbafb768	-0.00536244
137	0xbd4a8177	-0.049439874
138	0x3c9bf55f	0.0190379
139	0xbe51ebf8	-0.20500171
140	0x3d81c85b	0.06337043
141	0xbd33fb9b	-0.04394112
142	0xbe120fa5	-0.1426378
143	0x3e259821	0.16171314
144	0xbc1c2c4d	-0.0095320465
145	0xbd86cacf	-0.065816514
146	0xbdb2cdf5	-0.087306894
147	0x3dbf3e17	0.093380146
148	0xbcdd064c	-0.026980542
149	0x3e305675	0.1722048
150	0xbbcd8c2c	-0.0062728133
151	0xbdd61e20	-0.10454965
152	0x3e0d0d72	0.1377466
153	0x3cd29d82	0.025709871
154	0xbd8483b4	-0.06470433
155	0xbd58ed34	-0.05296059
156	0x3d374517	0.044743624
157	0xbd4edebf	-0.050505396
158	0xbcd02c5a	-0.025411773
159	0x3e4408cb	0.19143979
160	0x3da0c17c	0.07849404
161	0x3d554f52	0.0520776
162	0xbd668f39	-0.05628893
163	0x3b94d936	0.004542495
164	0x3da6cc0a	0.08144386
165	0xbd1ca31d	-0.038241494
166	0x3d33e5f5	0.043920476
167	0x3c31c248	0.010849543
168	0xbd4362e0	-0.047701716
169	0x3ca5740e	0.02019694
170	0xbe39ce1d	-0.18145032
171	0xbd2f8821	-0.042854432
172	0x3dcd3319	0.10019512
173	0xbd82c90c	-0.06386003
174	0x3b5588ce	0.0032582763
175	0xbce9748c	-0.028497957
176	0x3d70a3b1	0.05874986
177	0x3e14933e	0.14509293
178	0xbc882540	-0.016619325
179	0xbd2fef06	-0.04295256
180	0x3d885b02	0.06657983
181	0xbcf1bffd	-0.029510492
182	0xbbe63ae8	-0.007026065
183	0xbddc78a3	-0.10765197
184	0x3cfa5286	0.030556928
185	0x3d4a047e	0.04932069
186	0xbc27d533	-0.010243702
187	0x3a7ef4d6	0.00097258145
188	0x3d6a7264	0.057237998
189	0x3dde503b	0.108551465
190	0xbcc7ca0d	-0.024388338
191	0xbd650352	-0.05591137
192	0xbdb4f705	-0.08836178
193	0x3d9ecf44	0.077543765
194	0xbb8edf3c	-0.0043601077
195	0xbc7b9b86	-0.015356904
196	0x3ceb0418	0.028688475
197	0xbccccc3f	-0.024999736
198	0xbd150eb1	-0.036390964
199	0xbdd37c15	-0.10326401
200	0x3c7017b6	0.014654091
201	0xbd8c0b5f	-0.06838106
202	0x3d9ac65f	0.075573675
203	0x3d1faab9	0.038981173
204	0x3c918a6b	0.017766198
205	0xbc3f4613	-0.011674422
206	0xbd8f7c54	-0.070061356
207	0xbe243652	-0.16036347
208	0xbd747f33	-0.05969162
209	0x3b88add3	0.004171112
210	0xbdd96173	-0.1061429
211	0x3d3d2e1a	0.046186544
212	0xbc87b265	-0.016564557
213	0x3d67c434	0.0565836
214	0xbdc5eeba	-0.09664674
215	0xbdfc4f68	-0.12319833
216	0x3d5d07a1	0.053962354
217	0xbcc5b91a	-0.024136115
218	0x3e2b8760	0.1675086
219	0x3d96551e	0.073404536
220	0xbd8be5d3	-0.06830945
221	0xbdf81461	-0.12113262
222	0x3d9d2dd0	0.07674754
223	0x3cf1ccce	0.029516604
224	0x3dfe1765	0.12406806
225	0x3caa7acb	0.020810505
226	0x3ceb74bb	0.028742185
227	0x3e74fd7d	0.23924823
228	0x3bc3cc1e	0.0059752604
229	0x3e0aa886	0.13540849
230	0x3e0044f7	0.12526308
231	0x3dcc0cfc	0.09963414
232	0x3d432a02	0.047647484
233	0x3d3fda85	0.046839256
234	0xbd718919	-0.058968637
235	0xbdc4a8eb	-0.09602531
236	0x3d00bb27	0.031428482
237	0x3d191632	0.037374683
238	0x3e3a01fe	0.18164822
239	0xbd9e5db4	-0.07732716
240	0x3cc84165	0.024445245
241	0xbbc52079	-0.006015834
242	0x3e0f4410	0.13990808
243	0x3d966187	0.073428206
244	0x3d869e42	0.06573154
245	0xbd4cbe57	-0.04998621
246	0xbe0b37f8	-0.13595569
247	0x3c1931f4	0.009350289
248	0x3dc196ba	0.09452577
249	0x3d5b00b3	0.053467464
250	0xbd8d963c	-0.069134206
251	0xbd668a95	-0.056284506
252	0xbd7c298d	-0.061563063
253	0xbd950f79	-0.07278342
254	0x3d9f7dd7	0.07787674
255	0xbd0abd42	-0.033871897

gat_layers.0.attn_e f4 [1, 8, 64]
0	0x3d43bc3e	0.047786944
1	0xbd9075c6	-0.070537135
2	0x3d191260	0.03737104
3	0xbcc2e7e5	-0.023792217
4	0xbd3fdfbd	-0.046844233
5	0x3d6d6eb3	0.0579669
6	0xbdae12f4	-0.08499709
7	0xbd850b66	-0.06496315
8	0xbdcb57a3	-0.09928825
9	0x3c1fad93	0.009745973
10	0x3d6ebf41	0.058287863
11	0x3e17ee54	0.14837009
12	0x3bb220bf	0.0054360325
13	0x3d108f19	0.03529272
14	0xbd30c701	-0.043158535
15	0xbe0a604c	-0.13513297
16	0x3d66ca6b	0.056345385
17	0x3d8dc3ca	0.069221094
18	0x3dd246a1	0.10267378
19	0xbd934afc	-0.071920365
20	0x3c9af8d4	0.018917479
21	0xbd9b4e42	-0.07583286
22	0x3d4ed7bc	0.05049871
23	0xbd801da8	-0.062556565
24	0xbb1de20d	-0.0024091036
25	0xbcda7d76	-0.026671153
26	0xbd0bdcf0	-0.03414625
27	0xbd61a54a	-0.055089273
28	0xbca1aa3d	-0.019734496
29	0x3e282286	0.1641942
30	0x3d17118f	0.03688198
31	0x3da40909	0.08009536
32	0x3deac7ac	0.11463866
33	0xbd0346f4	-0.032050088
34	0x3cc1c751	0.023654612
35	0xbd5dd94b	-0.054162305
36	0x3cfe3bb7	0.031034334
37	0x3d1439f0	0.036188066
38	0x3e09710e	0.13422033
39	0x3d333b10	0.0437575
40	0xbcaf9290	-0.021432191
41	0x3d93d5cf	0.07218515
42	0xbbb7e889	-0.005612437
43	0xbd072360	-0.03299272
44	0xbdb83456	-0.08994357
45	0x3d1a1b7e	0.037623875
46	0x3d4fdce5	0.05074777
47	0xbd837657	-0.06419056
48	0x3d15fe53	0.036619496
49	0xbddebe3b	-0.10876127
50	0x3daf7790	0.085677266
51	0x3d8c3a58	0.06847066
52	0xbcd99f12	-0.026565108
53	0x3cfdbb9b	0.030973246
54	0xbde30ccd	-0.11086426
55	0xbd560d8e	-0.05225902
56	0x3e282104	0.16418844
57	0x3d9a439a	0.07532425
58	0x3e1b4065	0.15161283
59	0x3ce5423f	0.02798569
60	0x3d32267f	0.043493744
61	0x3d60c1ca	0.05487231
62	0xbcbe0f04	-0.02320052
63	0xbe24cd1e	-0.16093871
64	0xbda702cf	-0.081548326
65	0xbddef86a	-0.10887225
66	0x3e0e0969	0.13870777
67	0x3dc6641b	0.09687062
68	0xbd6c7f46	-0.057738565
69	0x3bc9d772	0.0061597163
70	0xbdf396a7	-0.11893969
71	0x3c00e7f9	0.007867807
72	0xbcbda063	-0.023147767
73	0xbd2a1637	-0.041525092
74	0xbd096b97	-0.03354987
75	0xbcff2f06	-0.031150352
76	0x3d383a13	0.04497726
77	0xbd9e61ed	-0.077335216
78	0xbe1d9294	-0.15387946
79	0xbd1358c7	-0.035973337
80	0x3c9d33cc	0.019189738
81	0x3bca59a2	0.006175236
82	0x3b187e59	0.0023268668
83	0xbd0d6f74	-0.034530118
84	0xbd7d70f2	-0.06187529
85	0xba0c8d0b	-0.0005361593
86	0x3c96f6be	0.018428203
87	0xbdd61b21	-0.10454393
88	0x3d4ab5c8	0.049489766
89	0x3c8c97e0	0.017162263
90	0xbc922cb7	-0.017843587
91	0x3e347c43	0.17625527
92	0xbda0b48f	-0.07846939
93	0xbd404ac8	-0.046946317
94	0x3dc31f80	0.095274925
95	0xbce53ac1	-0.027982118
96	0xbdde27a4	-0.108474046
97	0xbcedcaef	-0.02902743
98	0xbc1d62a5	-0.009606038
99	0x3df90ba1	0.12160421
100	0xb9357f71	-0.00017308981
101	0x3e3653bb	0.17805378
102	0x3cb007af	0.021488039
103	0x3af95862	0.0019023533
104	0x3db2dcea	0.08733542
105	0xbd16b3a7	-0.036792424
106	0x3e82d413	0.25552425
107	0xbd508459	-0.050907467
108	0xbd78c118	-0.060731024
109	0x3c9c0f72	0.019050334
110	0x3cfc44fb	0.030794611
111	0xbdc7dc0a	-0.09758766
112	0xbe0e5f3a	-0.13903514
113	0xbd11ca0b	-0.035593074
114	0x3d9f8e3c	0.07790801
115	0x3d096883	0.033546936
116	0x3d25824d	0.040407468
117	0xbd675cc1	-0.05648494
118	0x3ced09db	0.028935364
119	0x3d8db58a	0.069193915
120	0x3d800f86	0.06252961
121	0x3e2cf092	0.16888645
122	0xbd75e618	-0.060033888
123	0x3e2312cb	0.15925138
124	0x3d2a1645	0.041525144
125	0xbe3c5f50	-0.18395734
126	0x3cfff5a8	0.031245068
127	0x3af269c4	0.0018494655
128	0x3c89f5db	0.016840866
129	0x3d013c5c	0.031551704
130	0xbe2d9e2a	-0.16954866
131	0xbda7a11b	-0.08185025
132	0x3d2d5a8d	0.042322684
133	0x3b5cc806	0.003368856
134	0x3d804f7e	0.06265162
135	0xbd0c4437	-0.034244742
136	0xbd0a18b0	-0.03371495
137	0x3d0f9acd	0.03505974
138	0x3da161ef	0.078800075
139	0xbd3326a0	-0.043738008
140	0x3ca069e4	0.019581743
141	0x3dbca792	0.09211649
142	0xbd9da855	-0.076981224
143	0xbcedbdf4	-0.02902124
144	0xbca7b1e7	-0.020470573
145	0xbe1d3cb5	-0.15355189
146	0xbd1d8605	-0.03845789
147	0x3de366a3	0.11103561
148	0x3d83a1a7	0.06427317
149	0xbda8ef34	-0.082487494
150	0x3e2cf258	0.16889322
151	0x3dd3806e	0.103272304
152	0xbdea0fb6	-0.11428778
153	0x3d4af4db	0.04954992
154	0x3e1804cd	0.14845581
155	0xbd1cae8b	-0.038252395
156	0x3d06ecff	0.03294086
157	0xbcc2ed90	-0.02379492
158	0x38984144	7.2600815e-05
159	0x3b57c64c	0.003292459
160	0xbccde7ac	-0.025134884
161	0xbd14f344	-0.03636481
162	0xbdec6833	-0.11543312
163	0xbb6f3ee5	-0.0036505994
164	0x3e060c3e	0.13090608
165	0xbe168346	-0.14698514
166	0xbd4e28bd	-0.05033182
167	0x3d208694	0.039190844
168	0xbd9fbf44	-0.07800153
169	0x3b3404b6	0.0027468628
170	0x3c9fc528	0.019503191
171	0x3d28e676	0.04123541
172	0x3e306734	0.17226869
173	0xbd873105	-0.066011466
174	0x3d19443f	0.0374186
175	0xbe246c60	-0.16056967
176	0x3d708f6f	0.05873054
177	0x3e3cd097	0.18438946
178	0x3e4e828c	0.20166987
179	0xbd2b1a7d	-0.041773308
180	0xb974cb82	-0.00023345466
181	0x3dced8c5	0.10099939
182	0x3d308c85	0.04310276
183	0xbdad5a3e	-0.08464478
184	0x3cd09f55	0.0254666
185	0xbd111507	-0.035420444
186	0xbe207dd2	-0.15672997
187	0xbd499560	-0.04921472
188	0x3e0906a5	0.13381441
189	0xbd869716	-0.06571786
190	0x3d024386	0.031802677
191	0xbb429e61	-0.0029696452
192	0xbd2c0ff8	-0.042007416
193	0xbcf17a97	-0.0294774
194	0xba5884ea	-0.0008259552
195	0xbd01a33d	-0.031649817
196	0x3dcb992d	0.09941325
197	0xbd245812	-0.040123053
198	0x3afc1187	0.0019231298
199	0x3e025841	0.12728979
200	0x3adad556	0.0016695659
201	0xbd9e6cdc	-0.07735607
202	0xbe28600a	-0.16442886
203	0x3dbdda7d	0.09270189
204	0xbdc69adf	-0.09697508
205	0x3c82ff9b	0.015991023
206	0x3bba0be1	0.0056776856
207	0xbd96cfd0	-0.07363856
208	0xbd7de8e5	-0.061989684
209	0x3dc369bf	0.09541654
210	0xbd64f43f	-0.055896994
211	0x3daaa1dc	0.083316535
212	0x3dc66c90	0.096886754
213	0xbd8eadfe	-0.0696678
214	0x3cb53690	0.022120744
215	0xbdaa7e35	-0.08324853
216	0x3dc4ab18	0.09602946
217	0x3cf1ff23	0.029540604
218	0xbd50142e	-0.050800495
219	0xbe03dcfd	-0.12877269
220	0x3cacb871	0.021084042
221	0x3d9d0d41	0.076685436
222	0x3b8f4dfa	0.004373309
223	0xbd234c3e	-0.039867632
224	0xbe23faf6	-0.16013703
225	0x3e099190	0.13434434
226	0x3b1952dd	0.0023395338
227	0x3d998761	0.074965246
228	0xbd705e56	-0.058683716
229	0xbe1a796b	-0.1508538
230	0xbbc407f4	-0.0059823934
231	0xbe1bdd23	-0.15221076
232	0x3da419d0	0.08012736
233	0x3d9ac676	0.07557385
234	0xbda1baa0	-0.07896924
235	0xbca99f21	-0.020705761
236	0x3da84145	0.08215574
237	0xbe53c5aa	-0.20680872
238	0x3e15609f	0.1458764
239	0xba9b63b4	-0.0011855275
240	0xbd76c033	-0.06024189
241	0x3dafdaa8	0.08586627
242	0xbd1ca7b9	-0.03824589
243	0xbb89870c	-0.004197007
244	0xbcf6a7a5	-0.030109236
245	0xbe174f73	-0.14776401
246	0x3dd2f639	0.103008695
247	0xbd2d3d85	-0.042294998
248	0x3d91ab68	0.07112771
249	0xbd07091f	-0.032967683
250	0xbce0e7d8	-0.027454302
251	0xbe122489	-0.1427175
252	0xbd9f6615	-0.077831425
253	0x3db7ba59	0.0897109
254	0x3cee815f	0.029114423
255	0x3945d143	0.0001886534

gat_layers.0.edge_emb.weight f4 [3, 64]
0	0x4017e1e8	2.3731632
1	0xbdccb8d6	-0.09996192
2	0xbe34140a	-0.1758577
3	0xbf255474	-0.6458199
4	0x3daa79fe	0.083240494
5	0x3f4e4e10	0.80587864
6	0xbc0e54b9	-0.008687192
7	0x4018b291	2.3858988
8	0x3fcff18b	1.6245588
9	0xbefd3485	-0.49454132
10	0x3f796271	0.97415835
11	0xbed16dd0	-0.40904093
12	0x3ea44cf7	0.3208997
13	0x3f10728c	0.56424785
14	0xbe02275f	-0.12710331
15	0xbe9bd8a9	-0.30438736
16	0x3d9ca100	0.07647896
17	0xbf0577ff	-0.52136225
18	0x3fbf39b0	1.493948
19	0xbf4b83de	-0.7949809
20	0xbd459ba4	-0.048244134
21	0x3d97a063	0.07403638
22	0x3b8b4070	0.004249625
23	0x3f67190a	0.9027258
24	0x3ee0de70	0.43919706
25	0x3eea5929	0.4577115
26	0xbf1537a7	-0.58288044
27	0x3f5214d2	0.8206302
28	0xbe9a9092	-0.30188423
29	0x3d5d81d4	0.054078892
30	0x3e8e2621	0.27763465
31	0x3e6b95c4	0.2300635
32	0xbf12c2ce	-0.573285
33	0x3e03793f	0.1283922
34	0xbf657299	-0.8962799
35	0xbf2776ae	-0.65415466
36	0x3e1686b7	0.14699827
37	0xbd93f3cc	-0.07224235
38	0x3f533e26	0.82516706
39	0xbfa7a1d6	-1.3096263
40	0xbf3b95a7	-0.73275226
41	0x3fa1746b	1.2613653
42	0xbeed7b2e	-0.4638304
43	0x3f1b51f5	0.6067193
44	0xbe16a3db	-0.14710943
45	0xbf8b7b9e	-1.08971
46	0xbece6a60	-0.40315533
47	0xbf3094d9	-0.68977123
48	0x3e990ce1	0.29892638
49	0x3ee9a220	0.45631504
50	0x3f564e91	0.8371363
51	0x3dc9ceb9	0.09853882
52	0xbe41067a	-0.18850127
53	0x3eeef719	0.46672896
54	0x3f692731	0.91075426
55	0xbe1c330d	-0.1525385
56	0x3f67c65c	0.9053705
57	0xbea1a2ec	-0.31569612
58	0xbfd1a91f	-1.6379737
59	0x3fdb896e	1.7151315
60	0x3f353f4e	0.7079972
61	0x3f983466	1.1890991
62	0x3b116ed0	0.0022191294
63	0x3f9edb4d	1.2410675
64	0x3e27b618	0.16378057
65	0xbd8a2aac	-0.0674642
66	0xbf902198	-1.1260252
67	0x3c85530c	0.016274951
68	0xbe8804d4	-0.26566184
69	0xbf767f76	-0.9628824
70	0xbe92400c	-0.2856449
71	0x3db3dbe7	0.087821774
72	0xbf0623f0	-0.52398586
73	0xbf25c8c8	-0.6475949
74	0xbd02fcbd	-0.03197931
75	0xbf4e1c17	-0.8051161
76	0xbb81cbe8	-0.003961075
77	0x3f74f324	0.95683503
78	0xbfc67dea	-1.5507176
79	0x3d68fb6b	0.056880396
80	0x3d56f341	0.05247808
81	0xbf5b3830	-0.8563261
82	0x3f74379b	0.9539735
83	0xbe2f9c79	-0.17149533
84	0xbdf106eb	-0.117688976
85	0x3f7fc046	0.9990276
86	0xbf87ae48	-1.0600061
87	0xbf097508	-0.536942
88	0x3f1e8121	0.61915785
89	0xbe457760	-0.19283819
90	0x3f08cbca	0.5343596
91	0x3fad5a29	1.354314
92	0x3d8ed621	0.069744356
93	0x3ffaa04f	1.9580172
94	0x3e5b1e35	0.21398242
95	0x403b5b5f	2.9274518
96	0x3f707d9c	0.93941665
97	0xbfc7b943	-1.5603412
98	0xbe43655e	-0.19081637
99	0x3ee8aa39	0.4544237
100	0xbf4c7a71	-0.7987433
101	0xbee953e6	-0.45571822
102	0xc02c01d9	-2.6876128
103	0x3ec7a5b3	0.38993606
104	0x3ee9b880	0.45648575
105	0xbe80f5c0	-0.25187492
106	0xbef6cf92	-0.4820524
107	0x3d54f620	0.051992536
108	0xbfa8d658	-1.3190413
109	0xbf132f46	-0.5749401
110	0xbfec01c2	-1.8438036
111	0xbf7fd17a	-0.9992901
112	0x3f0191ef	0.506133
113	0x3f1b71b9	0.607204
114	0xbe00f45f	-0.1259322
115	0xbcc7ef30	-0.024406046
116	0x3e29c15b	0.16577666
117	0x3edef67a	0.43547422
118	0xbf1971ff	-0.5993957
119	0x3f3ea4af	0.7447004
120	0x3f90ad01	1.1302797
121	0x3fcb953b	1.5904917
122	0xbe74e486	-0.239153
123	0xbe5fe9af	-0.21866487
124	0x3f622a88	0.8834615
125	0xbfbc4fc3	-1.4711841
126	0x400b86b6	2.180097
127	0xbf4e91ee	-0.8069142
128	0x3d67b845	0.056572217
129	0x38df63ec	0.000106520805
130	0xbd940198	-0.072268665
131	0xbf7a214a	-0.97707045
132	0xbff52061	-1.9150506
133	0x3903a70e	0.00012555366
134	0x3eac7a11	0.3368688
135	0x3ef9603e	0.4870624
136	0x3c4ab7ee	0.012372954
137	0xbeaaf520	-0.3339014
138	0x3866bbd4	5.50112e-05
139	0x3da65d5f	0.08123278
140	0xb8e6dd8c	-0.00011008521
141	0xc00aef45	-2.1708539
142	0xbfa91167	-1.3208436
143	0xbe0a325f	-0.13495778
144	0xbf85ee9e	-1.0463445
145	0xbf2d6834	-0.67737126
146	0x391b9fff	0.00014841555
147	0x3ea717a4	0.32635224
148	0xbfb4cd60	-1.4125175
149	0xbe9d6434	-0.3074051
150	0xbe7f7ecd	-0.24950714
151	0xbeff1547	-0.4982092
152	0xbf158202	-0.584015
153	0x3e98fc22	0.29879862
154	0x391d974a	0.00015029046
155	0xbf8958ae	-1.0730188
156	0x3f2739b1	0.65322405
157	0xbfa548ce	-1.2912843
158	0x3da80e0a	0.08205803
159	0x3f3ff017	0.74975723
160	0x3dc6bdf7	0.09704202
161	0xbef40904	-0.47663128
162	0x38dba31e	0.00010473117
163	0xbfc205da	-1.5158036
164	0xbd98f337	-0.074682645
165	0xbf316720	-0.6929798
166	0xbeb7e146	-0.35914057
167	0xbf119804	-0.5687258
168	0xbfc8d7fd	-1.5690914
169	0xbfc217a6	-1.5163467
170	0xbe6bdb25	-0.23032816
171	0x391d84ad	0.00015022112
172	0xb6b66926	-5.4362636e-06
173	0xbe85b3dc	-0.26113784
174	0x3ed88ec3	0.4229642
175	0xbed7a9a0	-0.421216
176	0xbf08b871	-0.53406435
177	0x3e139e6e	0.14415905
178	0xb8a95ed2	-8.0762096e-05
179	0xbeecd137	-0.46253368
180	0x3fce9540	1.6139297
181	0x3ef2a1ae	0.47388977
182	0xbd5eb889	-0.054375205
183	0xbf5c8ed8	-0.8615546
184	0xb91cacf5	-0.00014941751
185	0x3da0b6fc	0.078474015
186	0x3f886313	1.0655235
187	0xbfb5cd93	-1.4203361
188	0xbfa85015	-1.3149439
189	0xbde331f0	-0.11093509
190	0x3e8284fe	0.2549209
191	0xbfb96d9a	-1.4486573

gat_layers.0.fc.weight f4 [512, 64]
0	0xbc8b2401	-0.016984941
1	0xbdf49245	-0.11941961
2	0xbdab3228	-0.08359176
3	0x3de60efc	0.11233327
4	0x3aa177c2	0.0012319016
5	0x3dcb3091	0.09921373
6	0x3e40c173	0.18823795
7	0xbd6dc380	-0.05804777
8	0xbd58822f	-0.052858528
9	0x3d0f7c38	0.035030574
10	0xbd3e5327	-0.04646602
11	0xbd6b380a	-0.05742649
12	0x3dc334f8	0.09531587
13	0xbb960c32	-0.0045790905
14	0xbd203991	-0.0391174
15	0x3c61b912	0.013777034
16	0x3d8427cf	0.064529054
17	0x3ca7235e	0.020402607
18	0x3d9b82ca	0.075933054
19	0xbd033aa2	-0.03203834
20	0xbded4ee5	-0.115873136
21	0xbc9b039d	-0.018922621
22	0xbc8bcb45	-0.0170647
23	0x3cf3f00b	0.029777547
24	0xbc0754af	-0.008259936
25	0x3d98d337	0.07462161
26	0xbd569c0c	-0.05239491
27	0xbd63d201	-0.055620197
28	0x3d5597d9	0.052146766
29	0x3de61dfb	0.11236187
30	0x3d564317	0.052310076
31	0x3dc4253c	0.095774144
32	0x3ce61012	0.028083835
33	0x3e7f861b	0.24953501
34	0x3df15eb5	0.11785642
35	0xbd6174f3	-0.055043172
36	0xbd682e4a	-0.05668477
37	0xbdf0008a	-0.11718853
38	0x3d3ab505	0.04558279
39	0xbdc768ff	-0.09736823
40	0xbd73c5fa	-0.059514977
41	0x3cc2e6fb	0.02379178
42	0xbd16eb73	-0.036845636
43	0xbca3cf5d	-0.01999634
44	0x3d850a8a	0.06496151
45	0xbe000881	-0.12503244
46	0x3d6f6c75	0.058453042
47	0xbbdb4492	-0.006691524
48	0x3d40a83c	0.04703544
49	0xbb9350ff	-0.0044957395
50	0x3c5080a0	0.012725979
51	0xbe0870be	-0.13324258
52	0x3e171cd0	0.14757085
53	0x3c82a6bd	0.015948648
54	0xbde82998	-0.113360584
55	0x3d1a6723	0.037696015
56	0x3c16d36d	0.009205681
57	0x3d9e32dd	0.07724545
58	0xbd1d4a79	-0.0384011
59	0xbdc1038f	-0.09424507
60	0xbca96270	-0.020676821
61	0x3dc7e705	0.0976086
62	0x3e118f62	0.14214852
63	0x3cf39b4b	0.029737135
64	0x3d9d120a	0.07669456
65	0x3dcf22be	0.101140484
66	0xbc9c6d61	-0.019095125
67	0xbbf65bc7	-0.007518265
68	0xbd1bec8a	-0.038067378
69	0x3bf6b9db	0.00752948
70	0xbe09232c	-0.13392323
71	0x3e4182cb	0.1889755
72	0xbbd1ae4e	-0.0063989526
73	0xbdf7f34e	-0.121069536
74	0x3cd66ef5	0.026175955
75	0xbd0e88ce	-0.034798436
76	0xbd0463f5	-0.03232189
77	0x3d85866a	0.06519778
78	0xbdaeec43	-0.08541157
79	0x3bb57367	0.0055374387
80	0x3e0b8cbf	0.13627909
81	0xbd1eee9f	-0.038801786
82	0xbd45cbc4	-0.04829003
83	0xbe5c6e42	-0.21526435
84	0x3e3cfbcb	0.18455426
85	0xbe142481	-0.1446705
86	0x3ce44a96	0.027867597
87	0xbdcd51e5	-0.10025386
88	0x3da44caa	0.08022435
89	0x3d34c472	0.044132657
90	0xbe033d48	-0.12816346
91	0x3d5a6ac9	0.053324495
92	0x3c1e9466	0.009678936
93	0x3e48452a	0.19557634
94	0x3d795373	0.0608706
95	0xbd58b418	-0.052906126
96	0x3caec4a0	0.021333992
97	0x3da1b40c	0.07895669
98	0x3d26424b	0.040590566
99	0xbca1530b	-0.019692918
100	0xbd1a92c5	-0.037737627
101	0x3d27ed19	0.0409976
102	0xbd8c5c81	-0.06853581
103	0x3db2d6c1	0.08732367
104	0xbb4c76b9	-0.0031198694
105	0xbe459014	-0.19293243
106	0xbdfd3c34	-0.123649985
107	0x3dca2549	0.09870393
108	0x3b9d0fc6	0.00479314
109	0x3dd7cfea	0.10537703
110	0xbe022a9b	-0.12711565
111	0x3c74c8b3	0.014940429
112	0x3deb3f25	0.11486653
113	0x3c92e6ba	0.017932285
114	0xbce4ca05	-0.027928362
115	0x3d817203	0.06320574
116	0x3d675cb9	0.05648491
117	0x3d2ec30a	0.042666472
118	0x3be4bd97	0.0069806087
119	0xbd83236a	-0.06403239
120	0x3bed49bd	0.0072414563
121	0x3db334ee	0.0875033
122	0x3caa051b	0.020754388
123	0x3e201b3c	0.15635389
124	0x3cb5b2f8	0.022180066
125	0xbbc3071a	-0.0059517743
126	0x3cfe522d	0.031045044
127	0x3df514b2	0.11966838
128	0xbda08283	-0.07837393
129	0x3b834300	0.0040057898
130	0x3d86e059	0.0658576
131	0x3ab0977c	0.001347288
132	0x3dc3ffdb	0.09570285
133	0x3ceaa8a6	0.028644871
134	0xbcb58cf2	-0.022161935
135	0xbc8e185d	-0.017345602
136	0xbde36e0b	-0.111049734
137	0xbd54d0e5	-0.05195703
138	0xbd977668	-0.07395631
139	0xbdc11cc4	-0.09429315
140	0xbc8d474b	-0.01724591
141	0xbd89232b	-0.06696161
142	0x3c9d71ce	0.019219305
143	0x3d56f72a	0.052481808
144	0xbe0fc2ad	-0.14039107
145	0x3da0a6a1	0.07844282
146	0xbd7bbc74	-0.06145902
147	0x3d8715c4	0.06595948
148	0xbdb3821e	-0.08765052
149	0x3c9da54b	0.019243857
150	0x3da95111	0.08267415
151	0x3d5442ff	0.051821705
152	0x3d5aba23	0.05340017
153	0x3d69d03e	0.05708336
154	0x3c86c589	0.016451614
155	0x3ca6b11a	0.02034812
156	0x3c34a4c9	0.011025616
157	0xbcce3c3f	-0.025175212
158	0xbcdff91a	-0.02734046
159	0xbd55b768	-0.052176863
160	0xbd355d3c	-0.04427837
161	0x3da1a1f5	0.07892219
162	0x3d33c125	0.04388537
163	0xbd6741ac	-0.056459114
164	0xbb8e3d78	-0.0043408237
165	0x3e0ed6a9	0.13949074
166	0xbc13e3bc	-0.009026464
167	0x3d98ef2a	0.07467492
168	0xbd69a17f	-0.05703878
169	0x3bbee958	0.0058261566
170	0xbcb8894e	-0.02252641
171	0xbd869678	-0.065716684
172	0x3d2db9c3	0.042413484
173	0xbdb69ac4	-0.08916238
174	0xbce07146	-0.027397763
175	0xbd068319	-0.03283987
176	0xbcdb9a71	-0.026807042
177	0x3d1acb92	0.037791796
178	0xbd63f994	-0.055657938
179	0x3db7f82d	0.08982883
180	0xbbe7f0d3	-0.007078269
181	0x3dfa924c	0.12234935
182	0xbc31e3ea	-0.010857562
183	0xbd7b6230	-0.061372936
184	0x3d631c22	0.05544675
185	0x3c1011ea	0.008793334
186	0xbd30281d	-0.043007005
187	0xbdba4eec	-0.090970844
188	0xbcb7e586	-0.022448312
189	0x3d2d8b90	0.042369425
190	0x3d1f9d74	0.03896852
191	0xbd05e235	-0.03268643
192	0xbd09dcbf	-0.033657786
193	0xbcc7ca7c	-0.024388544
194	0x3d07dedb	0.033171516
195	0xbd5893ff	-0.052875515
196	0xbce8c69a	-0.028415013
197	0xbe0a890c	-0.13528842
198	0xbca8f031	-0.020622345
199	0xbd92d01b	-0.07168599
200	0x3d0113ef	0.03151315
201	0x3c5d41de	0.0135044735
202	0xbd6de034	-0.058075145
203	0xbcc3ab50	-0.0238854
204	0xbdfff766	-0.124983594
205	0xbe096dce	-0.13420793
206	0x3d26f255	0.04075845
207	0xbd2fb24a	-0.04289464
208	0xbd9add7c	-0.07561776
209	0x3e154d03	0.14580159
210	0x3de42321	0.11139513
211	0x3ddfe76e	0.109328136
212	0xbe243313	-0.16035108
213	0x3cd2ddc3	0.02574051
214	0xbdad706a	-0.08468707
215	0xbdcc8d15	-0.09987847
216	0x3c917b2a	0.017758925
217	0x3d374595	0.044744093
218	0xbcf59525	-0.029978344
219	0x3d8621bb	0.06549402
220	0xbd203bc9	-0.039119516
221	0x3d3704d4	0.04468234
222	0xbd7199ff	-0.058984753
223	0x3da7ab05	0.08186916
224	0xbd247d24	-0.040158406
225	0x3d9243be	0.07141827
226	0x3dbe980e	0.09306346
227	0xbd038319	-0.032107446
228	0xbb2e0599	-0.002655363
229	0x3ddc5170	0.107577205
230	0x39e73ffa	0.0004410742
231	0x3a58f286	0.0008275885
232	0xbe02be9c	-0.12768024
233	0x3d5220fe	0.051300995
234	0xbe144a7d	-0.1448154
235	0x3b27311e	0.0025511454
236	0x3e090093	0.13379125
237	0xbd760090	-0.06005913
238	0x3dd591ff	0.10428237
239	0xbd143c4d	-0.03619032
240	0xbd3f4061	-0.046692256
241	0xbdef1783	-0.116744064
242	0xbd12f24e	-0.03587561
243	0xbdd2edb0	-0.102992415
244	0x3d8be290	0.06830323
245	0xbcb739d1	-0.022366436
246	0x3df2e731	0.118605025
247	0xbc9176a3	-0.017756766
248	0xbb4b9daf	-0.0031069329
249	0x3daac824	0.08338955
250	0x3d7234ea	0.059132494
251	0x3c16c9c4	0.009203378
252	0x3e049bfd	0.1295013
253	0xbbb2ed79	-0.005460438
254	0xbca932c7	-0.020654095
255	0x3c05cc97	0.008166454

gat_layers.0.fc_e.weight f4 [512, 64]
0	0x3c14027f	0.009033798
1	0x3af02f4b	0.0018324641
2	0xbce54c17	-0.027990384
3	0x3a5a985a	0.0008338742
4	0xbb1226a6	-0.0022300868
5	0xbd84baf2	-0.064809695
6	0xbb202a37	-0.0024439225
7	0x3c9dec0c	0.019277595
8	0xbd1a7c41	-0.037716154
9	0xbbe4e718	-0.0069855563
10	0x3d4a195c	0.04934059
11	0xbc7550a0	-0.014972836
12	0xbb38a4a4	-0.0028174305
13	0xbc156510	-0.009118333
14	0xbb346861	-0.0027528035
15	0x3b4fa015	0.003168111
16	0xbab8899b	-0.0014079096
17	0xbb30c23d	-0.0026971244
18	0x3c7aed6f	0.015315398
19	0xbc83baaa	-0.01608022
20	0x3a0a376d	0.00052725413
21	0x3c7f7980	0.015592933
22	0xbcd5874f	-0.026065497
23	0xbd49aaa8	-0.049235016
24	0x3bcf3a7a	0.0063241096
25	0xbc337312	-0.010952728
26	0xbd3fd0dc	-0.046830043
27	0x3c5f6fba	0.0136374775
28	0x3cb1aea8	0.021689728
29	0x3ceb7b86	0.028745424
30	0x3c0c25b3	0.00855391
31	0x3c3b2d81	0.011424423
32	0xbcd8fb1a	-0.026486922
33	0x3c825935	0.015911678
34	0xbbe63ba8	-0.0070261545
35	0xbcb77114	-0.022392787
36	0xbc4bb607	-0.012433535
37	0xbb7d6fd0	-0.0038671382
38	0xbce5f2d4	-0.028069891
39	0x3d486ba2	0.04893077
40	0x3b92e301	0.0044826274
41	0x3cabd40a	0.020975132
42	0xbc0bf8bb	-0.008543189
43	0x3d0cf04a	0.034408845
44	0x3d790561	0.060796145
45	0xbcc7ec21	-0.024404587
46	0xbc4b9973	-0.012426722
47	0xbd0a1053	-0.033706974
48	0x3ba12667	0.004917908
49	0xbb4d67df	-0.003134243
50	0x3b846580	0.00404042
51	0xba69b24f	-0.00089148147
52	0x3b650a18	0.0034948643
53	0x3a5d02df	0.0008430909
54	0xbcf90756	-0.030399006
55	0x3d3b71ee	0.04576295
56	0x3ab66bd5	0.0013917634
57	0xbca91c17	-0.020643277
58	0xbc9df797	-0.0192831
59	0xbc3bf97e	-0.011473058
60	0xbb435737	-0.0029806623
61	0xbd2c20b7	-0.042023387
62	0xbb03e889	-0.0020127615
63	0xbc9d3560	-0.01919049
64	0xbd3546e7	-0.04425707
65	0xbb25ca73	-0.002529767
66	0x3ca04ce9	0.019567924
67	0x3c84c4f5	0.016207198
68	0x3d7ff076	0.06248518
69	0xbd577c4a	-0.052608766
70	0x3b617b55	0.0034405787
71	0xbcde6f82	-0.02715278
72	0x3cd56d48	0.026053086
73	0x3c25e515	0.010125418
74	0x3d2dc17f	0.04242086
75	0x3ca47f3c	0.020080201
76	0xbcbeb6fc	-0.023280613
77	0xbc2ca791	-0.010537998
78	0x3df3cdd1	0.11904491
79	0xb7b8eba2	-2.2044234e-05
80	0x3b0d5be1	0.0021569657
81	0x3c62d845	0.013845508
82	0xbd2a0792	-0.041511126
83	0xbca8da69	-0.020611959
84	0xb776472a	-1.4679312e-05
85	0xbd18e6d6	-0.037329517
86	0x3d9504c1	0.07276297
87	0xbcd9c50d	-0.026583219
88	0x3c838f64	0.016059585
89	0x3c7dc08e	0.015487803
90	0xbc4bd330	-0.012440488
91	0xbd4cbc57	-0.049984302
92	0xbbead644	-0.0071666557
93	0xbda1c3d6	-0.07898681
94	0x3a38355a	0.0007026993
95	0xbdc6c6ba	-0.09705873
96	0xbd268d2f	-0.040661987
97	0xbd82100c	-0.06350717
98	0x3cb2e9c8	0.021839991
99	0xbd44e96b	-0.048074167
100	0xbc5b7786	-0.013395196
101	0x3af1cb95	0.0018447513
102	0xbd6eedf1	-0.058332387
103	0xbcc17598	-0.023615643
104	0x3c58e7d9	0.013238871
105	0x3d49a8ec	0.049233362
106	0x3b81683b	0.003949193
107	0x3cd5108d	0.026008869
108	0x3bfe6bf0	0.007764332
109	0x3d6e3a59	0.058161113
110	0x3c3bf594	0.011472125
111	0xbd36eede	-0.044661395
112	0x3bc79e7f	0.0060918923
113	0xbc3e1e7a	-0.011603946
114	0x3c8bd343	0.01706851
115	0xbc58e443	-0.013238016
116	0xbb9def09	-0.004819755
117	0xba7e9318	-0.000971125
118	0x3c65dfd3	0.014030415
119	0x3b3c9b9d	0.0028779276
120	0xbd2b4af0	-0.041819513
121	0xbd6bf610	-0.05760771
122	0x3c12417e	0.008926747
123	0x3d516744	0.051123872
124	0xbb5ecf13	-0.0033997938
125	0x3dfcc7bb	0.12342783
126	0xbd3cbb44	-0.046077028
127	0x3d47546f	0.048664507
128	0xbb37330e	-0.0027954015
129	0x3ab51fb9	0.0013818658
130	0xbc250bf0	-0.010073647
131	0x3c242171	0.010017739
132	0xb9af9463	-0.00033489158
133	0xbbb1de97	-0.005428146
134	0xba9ebc11	-0.0012110492
135	0x3b72fe51	0.0037077854
136	0xbcff53c3	-0.03116787
137	0xbaf9b7a0	-0.0019051917
138	0x3c906a74	0.017628886
139	0xbbb68fbc	-0.0055713337
140	0xbab3bddb	-0.0013713198
141	0x3c0fac03	0.008769038
142	0x3c6983a3	0.014252576
143	0x3aeb44ba	0.0017949559
144	0xba66cb18	-0.0008804067
145	0xbae361d9	-0.0017347886
146	0x3c525d93	0.012839693
147	0x3b8eea1f	0.0043614055
148	0x3a371eb5	0.00069854717
149	0xbca9f65c	-0.020747356
150	0x3b3057a7	0.0026907714
151	0x3bf54a9e	0.0074857017
152	0xbd65fb57	-0.0561479
153	0xbb27cc24	-0.0025603855
154	0x3c78c140	0.015182793
155	0x3c219333	0.009861755
156	0x3ab4cdf2	0.0013794287
157	0x3bbb5c82	0.005717815
158	0xbb162931	-0.0022912736
159	0xbcf18f41	-0.029487254
160	0x3dfe06ae	0.12403618
161	0xbc2b2ad8	-0.010447226
162	0xbbf866a1	-0.0075805937
163	0x3ce0cd03	0.027441507
164	0xbd4eef53	-0.050521206
165	0xbb43c00d	-0.002986911
166	0xbdd03ea4	-0.10168198
167	0x3d88ac2d	0.06673465
168	0xbc8e66d9	-0.017383026
169	0x3b9ea40a	0.0048413323
170	0xba47a83c	-0.00076163164
171	0xbacc308c	-0.0015578433
172	0xbcb04d52	-0.021521244
173	0x3b8390a4	0.0040150452
174	0xbba86bcd	-0.005139804
175	0xbd0f2a20	-0.034952283
176	0x3b17c8f9	0.002316056
177	0x3bfd0810	0.0077219084
178	0x3d5a6139	0.053315375
179	0xba1f528e	-0.000607767
180	0x3aa41078	0.0012517115
181	0xba1758c4	-0.000577342
182	0xbc49ab22	-0.012308868
183	0x3c2b83ce	0.010468436
184	0x3c3eb440	0.011639655
185	0xbd03655f	-0.032079097
186	0xbc995922	-0.01871926
187	0x3c7afb1c	0.015318658
188	0x3b267377	0.0025398412
189	0xbd0aa03c	-0.033844218
190	0xb7187742	-9.087673e-06
191	0x3d3dacce	0.046307378
192	0xbba77f18	-0.0051115863
193	0xba060496	-0.00051123777
194	0xbc4bafc9	-0.012432047
195	0x3c334d7a	0.010943765
196	0x39d45700	0.0004050061
197	0x3cc4294e	0.023945477
198	0x390f2827	0.000136525
199	0xbc39ae8c	-0.011333119
200	0xbd4a97ff	-0.04946136
201	0x38a24f30	7.739512e-05
202	0xbd7b67f4	-0.061378434
203	0x3cb83eb9	0.022490846
204	0x3af19dc2	0.0018433856
205	0xbb5a648e	-0.0033324095
206	0x3c269aa8	0.010168709
207	0xbabca76e	-0.001439316
208	0x391c6500	0.00014914945
209	0x3ae74601	0.0017644764
210	0x3ab7ebf2	0.0014032109
211	0x3c4ecb32	0.012621688
212	0xba3b83b2	-0.0007153108
213	0x3b6ada5d	0.003583572
214	0xbcc5f4d2	-0.024164591
215	0x3d0d089b	0.034432035
216	0xb79d3caa	-1.8744107e-05
217	0x3b1fd3d5	0.0024387736
218	0x3b9d3da1	0.0047986065
219	0xb96b1957	-0.00022420786
220	0xba9c2302	-0.0011912289
221	0xbbd06fff	-0.006361007
222	0x3b24224f	0.0025044864
223	0xbd2c10b9	-0.042008135
224	0x3d624436	0.055240832
225	0x3caa45b9	0.0207852
226	0x3aab4f20	0.0013069846
227	0xbd1f5dbe	-0.03890776
228	0x3d471e93	0.048613142
229	0xbc243a07	-0.0100236
230	0xbd0f8ee1	-0.03504837
231	0xbae8d47f	-0.0017763524
232	0xbb9c7a12	-0.004775294
233	0xbd2cb95f	-0.04216897
234	0xbb07aeed	-0.002070363
235	0x3b66175d	0.003510914
236	0xbca79818	-0.020458266
237	0xb8aa5e03	-8.123743e-05
238	0x3c349afe	0.011023281
239	0x3b0590a1	0.0020380395
240	0xba294fd1	-0.0006458732
241	0x38979367	7.227697e-05
242	0xbc518c45	-0.0127897905
243	0x39040245	0.00012589346
244	0xba7f3809	-0.0009735828
245	0xbb01e6bc	-0.0019821366
246	0x3c968383	0.018373257
247	0x3cd55b89	0.026044624
248	0xbab78da7	-0.0014004008
249	0xbc24859e	-0.010041622
250	0xb9af69fc	-0.00033457566
251	0x3c8384bd	0.016054505
252	0xbac7e83d	-0.0015251708
253	0x3cef2b27	0.029195381
254	0xbc61d3ec	-0.013783436
255	0x3e094cb6	0.13408169

gat_layers.1.attn_l f4 [1, 1, 2]
0	0xbfb69e2f	-1.4267024
1	0x3fb5d9a6	1.4207046

gat_layers.1.attn_r f4 [1, 1, 2]
0	0x3f9335bb	1.1500772
1	0x3f48db1a	0.7845932

gat_layers.1.attn_e f4 [1, 1, 64]
0	0xbd3a3d84	-0.045468822
1	0x3ef07c24	0.46969712
2	0x3bcec11d	0.006309642
3	0xbdd1c971	-0.102435
4	0x3d9a5b8f	0.07536995
5	0x3e0c242a	0.1368567
6	0xbe829437	-0.25503704
7	0xbe9d474f	-0.30718467
8	0x3d32caac	0.043650314
9	0xbe8a7d96	-0.2704894
10	0xbe5b74d7	-0.2143129
11	0x3e4949db	0.1965708
12	0x3da31800	0.07963562
13	0xbc7fa8d5	-0.015604218
14	0xbe2976f6	-0.16549286
15	0x3e46285f	0.19351338
16	0xbe718d44	-0.23589045
17	0x3c413597	0.011792562
18	0xbc91079c	-0.017703824
19	0xbea6c1ad	-0.32569638
20	0x3d39d15f	0.045365687
21	0xbdbe3810	-0.09288037
22	0xbb578137	-0.0032883415
23	0xbc5409bb	-0.012941773
24	0xbd149cfd	-0.03628253
25	0x3e982e5f	0.29722878
26	0xbcc0bcab	-0.023527464
27	0x3dd8e91e	0.105913386
28	0xbbbd0105	-0.005767944
29	0x3dbf5149	0.09341676
30	0xbdbbf547	-0.09177642
31	0xbdcbb9cd	-0.09947548
32	0xbec42cb5	-0.3831536
33	0x3d73cdcb	0.05952243
34	0xbe55aa3a	-0.20865718
35	0xbeb06b6e	-0.34456962
36	0x3bdffb40	0.0068353713
37	0x3e0153c6	0.12629613
38	0xbda7d12b	-0.081941925
39	0x3e96ae19	0.294297
40	0x3caa49a8	0.020787075
41	0xbc66e4d3	-0.014092642
42	0xbea44a3a	-0.3208788
43	0x3d26ff97	0.040771093
44	0xbc2b33c8	-0.010449357
45	0xbd8b298c	-0.06795034
46	0xbe17c559	-0.14821376
47	0x3a8dca84	0.0010817801
48	0xbbe1a282	-0.0068858275
49	0x3e18b10a	0.14911285
50	0x3e946211	0.2898107
51	0xbe5da5ec	-0.21645325
52	0x3db33e1e	0.08752082
53	0xb9f11cfe	-0.00045988703
54	0xbd939127	-0.0720542
55	0xbd5dc300	-0.054141045
56	0xbe4a9204	-0.19782263
57	0x3c5c342c	0.013440173
58	0x3d53ec2d	0.051738907
59	0x3e1a9053	0.15094118
60	0xbdd5d7c5	-0.104415454
61	0xbda65fc3	-0.08123734
62	0xbd9f3439	-0.077736326
63	0x3cf72150	0.030167252

gat_layers.1.edge_emb.weight f4 [3, 64]
0	0xbf2ffb85	-0.68743163
1	0x3e9926f8	0.29912543
2	0xbefcea0c	-0.49397314
3	0x3bf9a6d8	0.0076187663
4	0x3f75fd08	0.9608922
5	0xbfb3c81f	-1.4045447
6	0x3e3902a0	0.18067408
7	0xbfa84fa6	-1.3149307
8	0xbfabf112	-1.3432944
9	0x3f33ac1c	0.70184493
10	0x3db30857	0.08741825
11	0xbf54faf7	-0.8319544
12	0x3f1be6be	0.6089896
13	0x3fa4714d	1.2847077
14	0x3d03f757	0.032218304
15	0xbfa1a902	-1.2629702
16	0x3f158c8f	0.584176
17	0xbf8b8d8b	-1.090257
18	0xbe729dd9	-0.23693027
19	0xbeed0786	-0.46294802
20	0xbfc16a8e	-1.5110643
21	0xbf2ee515	-0.683183
22	0x3f2049eb	0.6261279
23	0xbeff41ed	-0.49854985
24	0xbe5e5e0e	-0.21715567
25	0x3ea60b50	0.32430506
26	0x3f4030d6	0.7507452
27	0xbf53e314	-0.8276837
28	0x3d15e69b	0.036596876
29	0xbfd340b3	-1.650412
30	0x3e274151	0.1633351
31	0x3f46c1cb	0.77639455
32	0x3e911995	0.2833983
33	0xbf1f4ec5	-0.6222957
34	0x3dea6730	0.11445463
35	0xbfbb01f5	-1.4609972
36	0xbf2c9947	-0.6742138
37	0xbf897de2	-1.0741541
38	0xbf99d57f	-1.2018279
39	0x3f355965	0.7083953
40	0xbfaf5eb3	-1.3700775
41	0x3d910451	0.070809014
42	0x3d484959	0.048898075
43	0xbefa3e56	-0.48875684
44	0x3f2a2ab1	0.6647139
45	0x3e5c1a4e	0.2149441
46	0xbf2c6233	-0.6733734
47	0x3fb6a0a6	1.4267776
48	0xbe7242c8	-0.23658288
49	0xbf48b3ca	-0.78399336
50	0xbe112e03	-0.14177708
51	0xbf78b5f7	-0.97152656
52	0xbf3d5c46	-0.73968923
53	0x3efb8823	0.49127302
54	0xbf01892f	-0.5059995
55	0x3eced388	0.4039576
56	0x3e2c1667	0.16805421
57	0x3f82bf43	1.0214618
58	0x3c949142	0.01813567
59	0x3d7c269b	0.061560255
60	0xbf2a7c15	-0.66595584
61	0x3e1b877d	0.15188403
62	0xbf340804	-0.7032473
63	0xbf4b778e	-0.794793
64	0xbcbb2ae1	-0.022847595
65	0x3fbbb11e	1.4663427
66	0x3f49aef8	0.78782606
67	0x3c8d4ea9	0.017249422
68	0x401e61d1	2.4747202
69	0xbf114dad	-0.5675915
70	0xbf3cbddd	-0.7372721
71	0x3e40b076	0.18817315
72	0x3cc0512d	0.023476208
73	0xbef4f253	-0.4784113
74	0xbf0c0169	-0.5468965
75	0x3f8cb3ee	1.099241
76	0xbf7f3bab	-0.9970042
77	0x3f421049	0.758061
78	0xbf7146d7	-0.9424872
79	0x3cb81772	0.022472117
80	0xbf9e9092	-1.2387869
81	0x3e4cfafc	0.20017618
82	0xbf6ab679	-0.9168468
83	0x3f551ae4	0.83244157
84	0x3f8331c4	1.0249562
85	0x3fd6f9b6	1.6794956
86	0x3f26c490	0.6514368
87	0x3ec38349	0.381861
88	0xbfb0418a	-1.3770001
89	0xbe5f410b	-0.21802156
90	0x3fd26f23	1.6440166
91	0x3d99ccf8	0.07509798
92	0x3e8e34ed	0.27774754
93	0x3f623fa1	0.8837834
94	0xbf54fd17	-0.83198684
95	0xbfaa772c	-1.3317618
96	0x3e3c4b1a	0.18388024
97	0x3c90d89d	0.017681414
98	0x3f2ef7c2	0.683468
99	0xbf2b532b	-0.6692378
100	0x3f7b55c2	0.9817773
101	0x3cab8307	0.020936502
102	0xbf014135	-0.50490123
103	0xbe646b58	-0.22306573
104	0xbffe2729	-1.9855701
105	0x3f53c3d9	0.82720715
106	0xbc25effa	-0.010128016
107	0xbf3baea3	-0.7331335
108	0x402f903e	2.7431788
109	0x3ef4605b	0.47729763
110	0x3faf2861	1.3684198
111	0x3f962b1e	1.1731908
112	0xbc332ecd	-0.010936451
113	0xbd9b0275	-0.07568828
114	0x3e5c11ce	0.21491167
115	0xbfff4f9d	-1.9946171
116	0x3ec24d3b	0.37949547
117	0x3f3a10e0	0.72682
118	0x3f8368c6	1.0266349
119	0x3b95764e	0.004561222
120	0xbf19475e	-0.5987452
121	0xbfe4bd3a	-1.7870247
122	0x3f217a49	0.6307722
123	0xc00f5dc4	-2.240098
124	0x3b760aee	0.0037543136
125	0xbdc6c43b	-0.09705397
126	0xbfe1b5b7	-1.763358
127	0xbf7487d6	-0.9551977
128	0x3eb47eab	0.3525289
129	0x3fd49e3a	1.6610787
130	0x3ea0c6d5	0.31401697
131	0x3f57ee2b	0.8434779
132	0xbe88973a	-0.26677877
133	0xbbb7ab7c	-0.0056051593
134	0x3f49a058	0.7876029
135	0xbea3d490	-0.3199811
136	0x3efe9ebc	0.4973048
137	0xb9fb6c29	-0.00047955036
138	0x3efa9b78	0.48946738
139	0xbe226a59	-0.15860881
140	0x3e470e8f	0.19439147
141	0xbeb9db34	-0.3630005
142	0xb91d737c	-0.00015015708
143	0xbc39cb3b	-0.011339958
144	0xbf2e759e	-0.6814822
145	0x3e3fff2f	0.18749689
146	0xbfbaa6aa	-1.4582112
147	0x3f024813	0.50891227
148	0x3f1d0805	0.6134036
149	0x3d93fab0	0.07225549
150	0x3fc993f9	1.5748283
151	0x3f202d8c	0.625695
152	0x3ecbbed1	0.3979402
153	0x3f6251aa	0.8840586
154	0x3eb3de8d	0.3513073
155	0x3fe84eba	1.8149025
156	0x3e8d1199	0.27552488
157	0xbeede78b	-0.46465716
158	0x3f5bca33	0.85855407
159	0x3e99ba28	0.30024838
160	0xbeb8e5a4	-0.36112702
161	0x3f81a062	1.012707
162	0xbe41b43b	-0.18916409
163	0xbfa228f9	-1.2668754
164	0xbd59ecf6	-0.0532045
165	0xbf7effef	-0.99609274
166	0xbdb99842	-0.09062244
167	0xbe8ebae4	-0.2787696
168	0x3e645bee	0.22300693
169	0x3dae24bc	0.085031
170	0xbf65013a	-0.89454997
171	0x3e1fd011	0.15606715
172	0x3f0cc104	0.5498202
173	0x3f42f541	0.7615548
174	0x3d03619f	0.03207552
175	0xb91d2311	-0.0001498575
176	0x3eda0b0e	0.4258656
177	0x3ff2b820	1.896244
178	0xb8f18e41	-0.000115182724
179	0x3e3cbab0	0.1843059
180	0x3e95c829	0.29254273
181	0x3fd14e65	1.6352049
182	0x3f90dc8f	1.1317309
183	0x3f971d6f	1.1805857
184	0xbec8f1a9	-0.39246872
185	0xbf636213	-0.88821524
186	0xbf36fec6	-0.71482503
187	0x3e7a89bb	0.24466603
188	0x3f8d4a98	1.1038389
189	0xbd14a7f1	-0.036292974
190	0xb9146b7e	-0.00014154424
191	0xbf80745d	-1.0035511
